INFO:timm.models._builder:Loading pretrained weights from Hugging Face hub (timm/vit_small_patch16_dinov3.lvd1689m)
INFO:timm.models._hub:[timm/vit_small_patch16_dinov3.lvd1689m] Safe alternative available for 'pytorch_model.bin' (as 'model.safetensors'). Loading weights using safetensors.
INFO:root:Custom Dino Classifier model created. with vit dimension of 384 and num_classes: 6 and model size: 21.687046M parameters
INFO:root:DinoClassifier(
  (backbone): Eva(
    (patch_embed): PatchEmbed(
      (proj): Conv2d(3, 384, kernel_size=(16, 16), stride=(16, 16))
      (norm): Identity()
    )
    (pos_drop): Dropout(p=0.0, inplace=False)
    (rope): RotaryEmbeddingDinoV3()
    (norm_pre): Identity()
    (blocks): ModuleList(
      (0-11): 12 x EvaBlock(
        (norm1): LayerNorm((384,), eps=1e-05, elementwise_affine=True)
        (attn): EvaAttention(
          (qkv): Linear(in_features=384, out_features=1152, bias=False)
          (q_norm): Identity()
          (k_norm): Identity()
          (attn_drop): Dropout(p=0.0, inplace=False)
          (norm): Identity()
          (proj): Linear(in_features=384, out_features=384, bias=True)
          (proj_drop): Dropout(p=0.0, inplace=False)
        )
        (drop_path1): Identity()
        (norm2): LayerNorm((384,), eps=1e-05, elementwise_affine=True)
        (mlp): Mlp(
          (fc1): Linear(in_features=384, out_features=1536, bias=True)
          (act): GELU(approximate='none')
          (drop1): Dropout(p=0.0, inplace=False)
          (norm): Identity()
          (fc2): Linear(in_features=1536, out_features=384, bias=True)
          (drop2): Dropout(p=0.0, inplace=False)
        )
        (drop_path2): Identity()
      )
    )
    (norm): LayerNorm((384,), eps=1e-05, elementwise_affine=True)
    (fc_norm): Identity()
    (head_drop): Dropout(p=0.0, inplace=False)
    (head): Identity()
  )
  (head): Sequential(
    (0): Linear(in_features=384, out_features=256, bias=True)
    (1): ReLU()
    (2): Dropout(p=0.1, inplace=False)
    (3): Linear(in_features=256, out_features=6, bias=True)
  )
)
INFO:root:train_dataset size : 62
INFO:root:Epoch [1/240], Train loss: 1.7791, Val loss: 1.7070
INFO:root:Epoch [2/240], Train loss: 1.7077, Val loss: 1.6676
INFO:root:Epoch [3/240], Train loss: 1.6513, Val loss: 1.6286
INFO:root:Epoch [4/240], Train loss: 1.5943, Val loss: 1.5890
INFO:root:Epoch [5/240], Train loss: 1.5496, Val loss: 1.5495
INFO:root:Epoch [6/240], Train loss: 1.4988, Val loss: 1.5062
…
